{"class_name": "Sequential", "keras_version": "2.1.6-tf", "config": [{"class_name": "Conv2D", "config": {"kernel_initializer": {"class_name": "VarianceScaling", "config": {"dtype": "float32", "distribution": "uniform", "scale": 1.0, "seed": null, "mode": "fan_avg"}}, "name": "conv2d", "kernel_constraint": null, "bias_regularizer": null, "bias_constraint": null, "dtype": "float32", "activation": "linear", "trainable": true, "data_format": "channels_last", "padding": "same", "strides": [1, 1], "dilation_rate": [1, 1], "kernel_regularizer": null, "filters": 32, "bias_initializer": {"class_name": "Zeros", "config": {"dtype": "float32"}}, "batch_input_shape": [null, 150, 150, 3], "use_bias": true, "activity_regularizer": null, "kernel_size": [3, 3]}}, {"class_name": "Activation", "config": {"dtype": "float32", "activation": "relu", "trainable": true, "name": "activation"}}, {"class_name": "MaxPooling2D", "config": {"name": "max_pooling2d", "dtype": "float32", "trainable": true, "data_format": "channels_last", "pool_size": [2, 2], "padding": "valid", "strides": [2, 2]}}, {"class_name": "Conv2D", "config": {"kernel_initializer": {"class_name": "VarianceScaling", "config": {"dtype": "float32", "distribution": "uniform", "scale": 1.0, "seed": null, "mode": "fan_avg"}}, "name": "conv2d_1", "kernel_constraint": null, "bias_regularizer": null, "bias_constraint": null, "dtype": "float32", "activation": "linear", "trainable": true, "data_format": "channels_last", "padding": "same", "strides": [1, 1], "dilation_rate": [1, 1], "kernel_regularizer": null, "filters": 32, "bias_initializer": {"class_name": "Zeros", "config": {"dtype": "float32"}}, "batch_input_shape": [null, 150, 150, 3], "use_bias": true, "activity_regularizer": null, "kernel_size": [3, 3]}}, {"class_name": "Activation", "config": {"dtype": "float32", "activation": "relu", "trainable": true, "name": "activation_1"}}, {"class_name": "MaxPooling2D", "config": {"name": "max_pooling2d_1", "dtype": "float32", "trainable": true, "data_format": "channels_last", "pool_size": [2, 2], "padding": "valid", "strides": [2, 2]}}, {"class_name": "Flatten", "config": {"dtype": "float32", "trainable": true, "name": "flatten", "data_format": "channels_last"}}, {"class_name": "Dropout", "config": {"name": "dropout", "dtype": "float32", "trainable": true, "rate": 0.5, "seed": null, "noise_shape": null}}, {"class_name": "Dense", "config": {"kernel_initializer": {"class_name": "VarianceScaling", "config": {"dtype": "float32", "distribution": "uniform", "scale": 1.0, "seed": null, "mode": "fan_avg"}}, "name": "dense", "kernel_constraint": null, "bias_regularizer": null, "bias_constraint": null, "dtype": "float32", "activation": "softmax", "trainable": true, "kernel_regularizer": null, "bias_initializer": {"class_name": "Zeros", "config": {"dtype": "float32"}}, "units": 58, "use_bias": true, "activity_regularizer": null}}], "backend": "tensorflow"}